…
Average actions of items: 21.938157894736843
The number of inters: 33346
The sparsity of the dataset: 97.6735781659876%
Fri 03 Nov 2023 02:01:24 INFO 
====Testing====
ml100k
The number of users: 943
Average actions of users: 35.45493107104984
The number of items: 1513
Average actions of items: 22.097818902842036
The number of inters: 33434
The sparsity of the dataset: 97.65664698803371%
Fri 03 Nov 2023 02:01:24 INFO 

=================================


Fri 03 Nov 2023 02:01:24 INFO =========1/3: Parameters:['cl_loss', 'seed']=(0.001, 999)=======
Fri 03 Nov 2023 02:01:24 INFO MGCN(
  (user_embedding): Embedding(943, 64)
  (item_id_embedding): Embedding(1682, 64)
  (image_embedding): Embedding(1682, 4096)
  (text_embedding): Embedding(1682, 384)
  (image_trs): Linear(in_features=4096, out_features=64, bias=True)
  (text_trs): Linear(in_features=384, out_features=64, bias=True)
  (softmax): Softmax(dim=-1)
  (query_common): Sequential(
    (0): Linear(in_features=64, out_features=64, bias=True)
    (1): Tanh()
    (2): Linear(in_features=64, out_features=1, bias=False)
  )
  (gate_v): Sequential(
    (0): Linear(in_features=64, out_features=64, bias=True)
    (1): Sigmoid()
  )
  (gate_t): Sequential(
    (0): Linear(in_features=64, out_features=64, bias=True)
    (1): Sigmoid()
  )
  (gate_image_prefer): Sequential(
    (0): Linear(in_features=64, out_features=64, bias=True)
    (1): Sigmoid()
  )
  (gate_text_prefer): Sequential(
    (0): Linear(in_features=64, out_features=64, bias=True)
    (1): Sigmoid()
  )
)
Trainable parameters: 8011072
Fri 03 Nov 2023 02:01:31 INFO epoch 0 training [time: 5.92s, train loss: 11.9593]
Fri 03 Nov 2023 02:01:31 INFO epoch 0 evaluating [time: 0.25s, valid_score: 0.033900]
Fri 03 Nov 2023 02:01:31 INFO valid result: 
recall@5: 0.0124    recall@10: 0.0203    recall@20: 0.0339    recall@50: 0.0686    ndcg@5: 0.0756    ndcg@10: 0.0669    ndcg@20: 0.0632    ndcg@50: 0.0694    precision@5: 0.0704    precision@10: 0.0594    precision@20: 0.0511    precision@50: 0.0440    map@5: 0.0405    map@10: 0.0263    map@20: 0.0188    map@50: 0.0153    
…
