…
Average actions of items: 21.938157894736843
The number of inters: 33346
The sparsity of the dataset: 97.6735781659876%
Fri 03 Nov 2023 02:00:35 INFO 
====Testing====
ml100k
The number of users: 943
Average actions of users: 35.45493107104984
The number of items: 1513
Average actions of items: 22.097818902842036
The number of inters: 33434
The sparsity of the dataset: 97.65664698803371%
Fri 03 Nov 2023 02:00:36 INFO 

=================================


Fri 03 Nov 2023 02:00:36 INFO =========1/3: Parameters:['cl_loss', 'seed']=(0.001, 999)=======
Fri 03 Nov 2023 02:00:38 INFO MGCN(
  (user_embedding): Embedding(943, 64)
  (item_id_embedding): Embedding(1682, 64)
  (text_embedding): Embedding(1682, 384)
  (text_trs): Linear(in_features=384, out_features=64, bias=True)
  (softmax): Softmax(dim=-1)
  (query_common): Sequential(
    (0): Linear(in_features=64, out_features=64, bias=True)
    (1): Tanh()
    (2): Linear(in_features=64, out_features=1, bias=False)
  )
  (gate_v): Sequential(
    (0): Linear(in_features=64, out_features=64, bias=True)
    (1): Sigmoid()
  )
  (gate_t): Sequential(
    (0): Linear(in_features=64, out_features=64, bias=True)
    (1): Sigmoid()
  )
  (gate_image_prefer): Sequential(
    (0): Linear(in_features=64, out_features=64, bias=True)
    (1): Sigmoid()
  )
  (gate_text_prefer): Sequential(
    (0): Linear(in_features=64, out_features=64, bias=True)
    (1): Sigmoid()
  )
)
Trainable parameters: 859392
